lstm_model/epoch=203-step=15504.ckpt (torch, 221225 bytes, 18 tensors)

lstm.weight_ih_l0 f4 [200, 34]
-0.007476282 0.03213178 -0.13800459 -0.13022116 0.019059654 -0.06963311 0.009549795 0.030926688
0.061160557 0.02949701 0.14084685 -0.10056257 -0.033484735 0.035093833 0.1304045 -0.10564253
0.106718324 -0.13174 -0.028463399 0.0617364 0.087730914 0.00027490038 -0.12570353 -0.07564153
-0.11042453 0.0018449186 0.028265577 -0.12079579 0.12953381 0.13767284 -0.1111146 0.0156017495
-0.059500705 -0.08409655 -0.015785098 -0.13216001 -0.033530198 0.103550196 -0.037332974 0.00352256
0.03730488 0.11106773 0.034016922 -0.086203724 -0.058983654 -0.09194884 0.042520985 0.13575889
0.0763607 0.12613223 0.07171613 0.012403086 -0.065861285 -0.044042923 0.13179247 0.08600308
-0.009835541 -0.07948252 0.053576067 0.046901718 0.07535499 -0.05532673 0.08370054 0.053980023
-0.040079027 0.07970713 0.043733537 0.11870675 0.0753188 -0.007602513 -0.13259165 0.11967607
-0.022928767 0.13322608 -0.004077956 -0.09185916 -0.02966319 -0.07314655 -0.11156602 -0.122039035
-0.13434835 -0.057484895 -0.12709008 0.1350876 -0.028189987 -0.020640068 0.055021793 0.061805844
0.13438652 -0.087502494 -0.0146372765 0.02069132 -0.12743749 -0.022096954 0.10626553 -0.03660825
0.09671965 -0.13346353 -0.07359757 -0.03616198 0.11550258 -0.12400947 -0.04980369 -0.011201337
-0.052528664 0.12690635 0.12490545 0.1221367 0.07188468 0.035694852 0.06559241 0.08229937
-0.08758147 0.087555364 -0.0969623 0.057739496 0.10878773 0.018973261 0.11365919 0.10932545
0.13578479 0.07428178 -0.09958121 0.124041006 -0.02331414 0.07378873 -0.0020370632 0.07177283
0.07218078 -0.052744016 0.058238447 -0.03886359 -0.08150564 0.050587386 0.12034838 0.058138058
-0.07928661 0.099571005 0.07367809 0.032600135 -0.13734156 0.0024220576 0.11036446 0.13632178
0.024435254 0.04019559 -0.010116137 -0.008284673 0.014546176 -0.08711833 0.020538617 -0.051740143
-0.059666336 -0.04735393 0.10568514 -0.0039522373 0.03337232 -0.15757939 0.09444187 -0.032191
-0.008157949 -0.047096174 -0.07394303 -0.034261495 0.03634813 0.031431407 0.09907672 0.028876793
-0.11642498 0.0006970652 0.09927723 0.03779319 -0.015898198 0.09842664 0.12442015 -0.014583528
0.01715587 0.1149932 -0.10650781 -0.049839124 -0.04933311 0.062088788 0.11420615 0.09750582
0.08201012 -0.11595723 0.113264844 0.0011942685 -0.012314737 -0.09386168 0.11657943 0.006876439
-0.1038099 0.11851351 0.137565 0.041082352 -0.049668953 0.073989585 -0.047894113 0.12059961
0.077378705 -0.04955463 -0.0036381334 -0.083370656 -0.11577949 -0.044812605 -0.116625205 0.033993125
0.096223414 -0.14015234 -0.03914524 -0.057674304 0.02779904 0.06520218 -0.034089215 -0.13477759
0.03333357 0.080684245 -0.08387771 0.001626566 0.1265439 0.12718062 0.12470664 0.038916722
-0.10459946 0.09321712 -0.0066396147 -0.09898613 0.054884747 -0.04742475 0.010543153 0.089245096
0.010671347 -0.10755208 -0.06508544 -0.035730615 -0.096453555 -0.09888762 0.03547278 -0.050405577
0.041436046 -0.119480014 -0.13937914 -0.025142387 0.06807375 -0.08927272 0.03918141 0.04124017
-0.07082473 0.109388724 0.05224487 0.11818771 0.06821847 0.023685321 -0.09276903 0.028850377
00000000: 99fb f4bb 9d9c 033d 1351 0dbe b258 05be
00000010: fe22 9c3c ce9b 8ebd be76 1c3c f759 fd3c
00000020: 7e83 7a3d b7a3 f13c 283a 103e c0f3 cdbd
00000030: 4a27 09bd 8dbe 0f3d c288 053e 1c5b d8bd
00000040: 238f da3d dae6 06be 132c e9bc 4fdf 7c3d
00000050: 44ac b33d 8120 9039 6db8 00be f2e9 9abd
00000060: 4226 e2bd 32d1 f13a 368d e73c c863 f7bd
00000070: 83a4 043e 1cfa 0c3e 0d90 e3bd 7b9e 7f3c
00000080: 03b7 73bd d03a acbd c04f 81bc f454 07be
00000090: f656 09bd 2012 d43d 76ea 18bd c0da 663b
000000a0: 00cd 183d 7a77 e33d 5455 0b3d 948b b0bd
000000b0: d898 71bd ac4f bcbd 7c2a 2e3d 6104 0b3e
000000c0: 0063 9c3d cf28 013e e8df 923d 5036 4b3c
000000d0: 48e2 86bd 5a66 34bd 9bf4 063e 6222 b03d
000000e0: 4025 21bc bbc7 a2bd 9472 5b3d 041c 403d
000000f0: b853 9a3d 489e 62bd 306b ab3d 281a 5d3d
00000100: e829 24bd 7e3d a33d f021 333d 861c f33d
00000110: be40 9a3d 801e f9bb 1bc6 07be ba18 f53d
00000120: 1cd5 bbbc 6b6c 083e 60a0 85bb a820 bcbd
00000130: 3800 f3bc dccd 95bd ba7c e4bd 9aef f9bd
00000140: 9d92 09be 4875 6bbd e723 02be 6754 0a3e
00000150: b0ee e6bc 5c15 a9bc 885e 613d 2028 7d3d
00000160: 9f9c 093e 8234 b3bd 30d1 6fbc d880 a93c
00000170: f97e 02be ac04 b5bc bea1 d93d 88f2 15bd
00000180: f414 c63d aaaa 08be 53ba 96bd 961e 14bd
00000190: 9e8c ec3d adf8 fdbd f4fe 4bbd d085 37bc
000001a0: 4c28 57bd bdf3 013e 6ece ff3d ce22 fa3d
000001b0: 4638 933d c434 123d 5055 863d 928c a83d
000001c0: ea5d b3bd 3a50 b33d 2c94 c6bd 4080 6c3d
000001d0: 1acc de3d d06d 9b3c 26c6 e83d 06e6 df3d
000001e0: 2b0b 0b3e 0c21 983d 3cf1 cbbd 3609 fe3d
000001f0: 4cfd bebc 8c1e 973d 4080 05bb a2fd 923d
00000200: 84d3 933d 1c0a 58bd 708b 6e3d 6e2f 1fbd
00000210: 6eec a6bd b834 4f3d 3679 f63d 2c22 6e3d
00000220: 0561 a2bd e2eb cb3d 8ae4 963d b887 053d
00000230: 44a3 0cbe 62bb 1e3b c306 e23d f097 0b3e
00000240: 712c c83c 22a4 243d 27be 25bc 70bc 07bc
00000250: 1653 6e3c 186b b2bd 9a40 a83c 79ed 53bd
00000260: b064 74bd 32f6 41bd 7371 d83d c581 81bb
00000270: 6ab1 083d 7e5c 21be bd6a c13d b6da 03bd
00000280: eba8 05bc ebe7 40bd 716f 97bd c855 0cbd
00000290: c7e1 143d 38be 003d bce8 ca3d 068f ec3c
000002a0: 3870 eebd 41bb 363a dc51 cb3d 08cd 1a3d
000002b0: f03c 82bc e893 c93d fecf fe3d c0ef 6ebc
000002c0: 788a 8c3c 8e81 eb3d c420 dabd 1c24 4cbd
000002d0: 8411 4abd d050 7e3d eae4 e93d 22b1 c73d
000002e0: ecf4 a73d fc7a edbd 66f7 e73d 0089 9c3a
000002f0: c0c3 49bc 8d3a c0bd 32c1 ee3d c053 e13b
00000300: 499a d4bd 36b7 f23d d7dd 0c3e f845 283d
00000310: ac71 4bbd da87 973d 9e2c 44bd eefc f63d
00000320: ba78 9e3d ccf9 4abd c06d 6ebb 3cbe aabd
00000330: cc1d edbd 6c8d 37bd 32d9 eebd 603c 0b3d
00000340: c810 c53d 1884 0fbe c256 20bd e43b 6cbd
00000350: d0ba e33c b888 853d 22a1 0bbd 2303 0abe
00000360: c888 083d c83d a53d 14c8 abbd 8032 d53a
00000370: b994 013e a33b 023e 3266 ff3d 2467 1f3d
00000380: 3e38 d6bd 9ee8 be3d 2091 d9bb 3db9 cabd
00000390: d4ce 603d 7440 42bd 30bd 2c3c 22c6 b63d
000003a0: e0d6 2e3c 4444 dcbd 844b 85bd 445a 12bd
000003b0: 7189 c5bd 9885 cabd e84b 113d 1476 4ebd
000003c0: d8b8 293d f0b1 f4bd 68b9 0ebe 68f7 cdbc
000003d0: 406a 8b3d 9ed4 b6bd b07c 203d 74eb 283d
000003e0: 8e0c 91bd 3207 e03d b8fe 553d 660c f23d
000003f0: 20b6 8b3d b807 c23c b0fd bdbd a057 ec3c

lstm.weight_hh_l0 f4 [200, 50]
-0.087852955 0.11969404 -0.110583305 -0.06743054 -0.028725237 0.12528528 0.115886554 -0.12176446
0.04942605 0.1201158 0.13652162 -0.009071559 0.035497144 -0.08001841 -0.08123062 0.0226302
0.01624316 0.0877289 0.11422719 -0.10628018 0.13540153 0.05604157 0.024954244 0.12465696
-0.08319803 -0.031993963 -0.050230384 0.098444685 -0.06198918 0.03643076 0.0930208 0.12536927
-0.00027211578 -0.016552806 -0.025230452 0.03740278 -0.07197318 -0.003253868 0.11396603 -0.10952247
-0.09290175 -0.007315904 0.0058968216 -0.004774958 -0.06014391 -0.05668839 0.13938068 -0.024629407
0.065129355 -0.09611106 -0.098265514 0.009286255 0.11079092 -0.024726227 -0.08816956 0.015040457
-0.053310223 -0.06876815 -0.11738388 -0.064467065 0.026578322 0.003425613 -0.07418852 -0.11650153
-0.06313605 0.050108105 -0.10673818 0.060061485 0.024362847 0.13466941 0.095058575 -0.02256377
0.13439067 0.024252683 -0.080031626 -0.057076477 0.12679596 -0.019104362 0.061527893 0.028724506
-0.0058964044 -0.02976156 -0.12437612 -0.118916154 -0.023552082 -0.048201986 -0.05957582 0.07055555
-0.050577804 -0.02925855 0.034762144 0.09724121 0.12503664 -0.089579284 -0.11592454 0.07360664
-0.061140433 0.033477247 0.05061972 0.112385735 0.12287511 0.1356555 -0.124439925 -0.055925585
-0.013703689 -0.13732971 0.118791774 0.12311135 0.05087769 -0.0072779804 -0.13039042 -0.07760973
0.116855994 -0.041478805 -0.07609668 0.09460743 -0.07598259 0.08591722 0.01672256 0.056381524
-0.04195965 -0.037211575 -0.009589076 -0.059684522 -0.12768875 -0.06984891 0.108842865 0.026592761
0.07503556 -0.123883314 -0.034939803 -0.117640644 -0.06549489 -0.09263976 0.0059883893 0.032442644
-0.09663059 0.09351155 -0.12752664 0.03325118 0.07395713 -0.058231287 -0.008578137 0.07491659
0.056008562 0.04321435 0.0010628402 -0.044469476 -0.032392368 0.017810822 0.10084212 0.09144032
0.042558 -0.12671846 -0.13284102 0.027813151 0.13822637 0.113469675 -0.05059716 -0.10983899
-0.023085602 0.106038526 0.114813104 -0.10082567 -0.07984434 -0.009188667 -0.011274815 0.13278656
-0.022784248 0.054633632 0.062066868 -0.034594655 0.13576324 -0.08918874 0.028681725 0.035745353
0.038784325 0.05238977 -0.069904394 -0.13778563 -0.10661388 0.12499346 0.12867765 -0.11600118
0.051164642 0.10065384 -0.015089467 0.119595155 -0.053197518 0.057460263 -0.13890606 0.009375975
0.09544824 -0.12632954 0.12681378 0.03532298 0.08944929 -0.07698335 -0.09573947 -0.06338841
0.062162563 0.04753893 0.1260374 -0.22604416 -0.17732953 -0.10000742 0.12800743 -0.062883675
-0.13805154 -0.13890393 0.1232138 -0.069425635 -0.01635173 0.12426324 -0.4418815 0.12345298
-0.09765926 0.098981485 -0.024211966 -0.23932602 -0.13631749 -0.12830244 0.33680597 0.02897178
-0.0022246968 -0.09748977 0.02801703 -0.038360797 0.091164336 -0.10000256 0.20250238 0.03868042
-0.1304624 0.048271537 -0.07478243 0.1677105 -0.02383925 0.18174952 0.30441764 0.16123377
0.12175371 0.046840668 0.13117526 -0.18640965 0.0065254136 -0.027155131 0.20889562 -0.03090545
-0.18877646 -0.054181177 -0.093510225 0.0010239184 0.03758563 0.10222843 -0.094728485 -0.069015145
00000000: 40ec b3bd 2622 f53d 8079 e2bd 0619 8abd
00000010: 3051 ebbc c94a 003e ee55 ed3d a55f f9bd
00000020: f872 4a3d 46ff f53d 53cc 0b3e e0a0 14bc
00000030: 7465 113d b1e0 a3bd 3d5c a6bd f862 b93c
00000040: 6010 853c 36ab b33d f2ef e93d 6ca9 d9bd
00000050: b3a6 0a3e d88b 653d d86c cc3c 264c ff3d
00000060: bb63 aabd 1a0c 03bd 60be 4dbd 5e9d c93d
00000070: 5ee8 7dbd 6c38 153d b081 be3d cd60 003e
00000080: c3aa 8eb9 c099 87bc 18b0 cebc a833 193d
00000090: ad66 93bd d93e 55bb 0667 e93d 514d e0bd
000000a0: 4643 bebd 40ba efbb 203a c13b 4077 9cbb
000000b0: 7659 76bd 1632 68bd cfb9 0e3e 9cc3 c9bc
000000c0: 8a62 853d e0d5 c4bd 6e3f c9bd 6025 183c
000000d0: 5ae6 e23d a88e cabc 3e92 b4bd 406c 763c
000000e0: d25b 5abd 51d6 8cbd f666 f0bd 4f07 84bd
000000f0: c8ba d93c 4080 603b 27f0 97bd 5b98 eebd
00000100: 794d 81bd 283e 4d3d 8c99 dabd 0803 763d
00000110: 9894 c73c c7e6 093e 12ae c23d a8d7 b8bc
00000120: b59d 093e 90ad c63c 9fe7 a3bd 06c9 69bd
00000130: cdd6 013e c080 9cbc ac04 7c3d a84f eb3c
00000140: a036 c1bb 84ce f3bc e8b8 febd 508a f3bd
00000150: 4cf0 c0bc 726f 45bd c605 74bd 6e7f 903d
00000160: ac2a 4fbd a0af efbc c062 0e3d 6626 c73d
00000170: 9b09 003e 5875 b7bd d869 edbd 14bf 963d
00000180: 646e 7abd 701f 093d a056 4f3d 7e2a e63d
00000190: f2a5 fb3d 47e9 0a3e 5cda febd 3a12 65bd
000001a0: 7085 60bc 29a0 0cbe 1a49 f33d ce21 fc3d
000001b0: 2065 503d 207c eebb 1185 05be daf1 9ebd
000001c0: 3252 ef3d aee5 29bd 93d8 9bbd 8ac1 c13d
000001d0: c39c 9bbd 5ef5 af3d c0fd 883c 50f0 663d
000001e0: e2dd 2bbd 2a6b 18bd 801b 1dbc c277 74bd
000001f0: d7c0 02be f20c 8fbd 02e9 de3d 10d9 d93c
00000200: 3eac 993d 89b6 fdbd 0a1d 0fbd 94ed f0bd
00000210: 2f22 86bd eab9 bdbd 403a c43b 94e2 043d
00000220: 42e6 c5bd fc82 bf3d 5896 02be 6432 083d
00000230: d676 973d ee83 6ebd 508b 0cbc de6d 993d
00000240: 3c69 653d 8801 313d 004f 8b3a a025 36bd
00000250: dcad 04bd 00e8 913c 5086 ce3d 1045 bb3d
00000260: 4c51 2e3d 7cc2 01be 7a07 08be 68d8 e33c
00000270: 378b 0d3e ca62 e83d f83e 4fbd 44f3 e0bd
00000280: 041e bdbc ba2a d93d 2223 eb3d b07d cebd
00000290: 6e85 a3bd 108c 16bc 00ba 38bc 33f9 073e
000002a0: 08a6 babc 84c7 5f3d d439 7e3d 20b3 0dbd
000002b0: 8505 0b3e 96a8 b6bd f0f5 ea3c b869 123d
000002c0: 50dc 1e3d a896 563d 092a 8fbd ad17 0dbe
000002d0: 6158 dabd 92fc ff3d 13c4 033e 0792 edbd
000002e0: 0492 513d 9a23 ce3d d039 77bc 4eee f43d
000002f0: a4e5 59bd 745b 6b3d 643d 0ebe b09d 193c
00000300: 5e7a c33d 885c 01be 79db 013e d4ae 103d
00000310: 3031 b73d 72a9 9dbd 0e13 c4bd c8d1 81bd
00000320: 2c9e 7e3d 2eb8 423d f30f 013e 1f78 67be
00000330: df95 35be b1d0 ccbd 6114 033e 28c9 80bd
00000340: 625d 0dbe d53c 0ebe 8457 fc3d 072f 8ebd
00000350: 10f4 85bc ba7d fe3d 4b3e e2be ead4 fc3d
00000360: 9401 c8bd ceb6 ca3d 2c58 c6bc e111 75be
00000370: d096 0bbe b761 03be d571 ac3e 3a56 ed3c
00000380: 38cc 11bb b7a8 c7bd f883 e53c 3620 1dbd
00000390: 5eb4 ba3d 24ce ccbd c95c 4f3e 5c6f 1e3d
000003a0: ef97 05be 60b8 453d 8827 99bd 4dbc 2b3e
000003b0: 884a c3bc 8c1c 3a3e a1dc 9b3e 771a 253e
000003c0: 025a f93d 00dc 3f3d cf52 063e 2ce2 3ebe
000003d0: 23d3 d53b 7074 debc bce8 553e 6d2d fdbc
000003e0: 9e4e 41be 15ed 5dbd 4a82 bfbd 0035 863a
000003f0: 64f3 193d 245d d13d 0201 c2bd d057 8dbd

lstm.bias_ih_l0 f4 [200]
0.06687483 0.052996412 -0.118810475 -0.006260723 0.13471356 0.053474978 -0.027409814 0.05410634
-0.01859873 -0.12203708 0.09152749 -0.12001166 -0.06974644 0.011962265 -0.110736325 -0.10112493
-0.053285666 0.07361348 0.04543642 -0.12570529 -0.039696336 -0.0064668646 0.14436442 -0.0072653987
0.03662413 -0.119232446 -0.019130424 -0.07760938 -0.12049638 0.014898062 0.069664076 0.02897489
0.12451687 0.10434343 0.08237553 0.058625855 -0.02414509 -0.1110492 0.03766267 -0.019744523
0.0028196722 0.032365073 -0.12873714 -0.047650266 0.10470375 0.04945278 -0.036010478 0.11250451
-0.075576715 0.12662585 0.13488819 -0.029015811 0.11895017 0.088555776 0.09774797 0.02972458
0.08247928 0.00465928 0.08959828 0.046171874 -0.06114372 0.0004255277 -0.0031173676 -0.014445245
-0.10072059 0.08666773 0.06881921 0.10881214 0.13778217 -0.08568399 -0.11896938 -0.13044769
-0.015412603 -0.12746823 -0.08219775 0.1371957 -0.1123982 -0.09250217 0.055539012 -0.062815495
-0.025429484 0.07145108 -0.0699979 -0.11294022 -0.12306496 0.0655559 0.11725493 0.095109545
0.14000654 -0.04723996 0.07667819 0.05381547 0.10040043 -0.12729459 0.04308203 -0.12347574
-0.0105745625 0.07730861 -0.07221753 -0.13879417 -0.11836429 0.09849292 -0.088742994 -0.05757472
0.08888627 -0.094315484 0.027308047 0.13267525 -0.13571802 -0.055800594 -0.04615412 -0.071216546
0.081828326 0.0051099956 -0.055500668 -0.1372274 0.14118727 0.100310504 -0.119676165 -0.028037973
-0.07223106 0.010030881 0.1358445 -0.058532193 -0.011585414 -0.003116101 -0.030549116 0.076435745
-0.09133248 0.12062459 0.09674998 -0.026789531 -0.03438893 -0.09386569 -0.0042416453 -0.12237621
0.026200116 -0.05247318 0.039918527 -0.04143037 -0.08668545 0.086010695 -0.13302206 -0.08394245
0.11452682 -0.1247463 0.08186732 0.015934478 -0.08203739 0.11611195 0.0726438 -0.011568353
0.08006936 -0.054806557 0.06875842 0.1075315 0.06839846 -0.012486458 -0.13734592 0.12457822
0.03079532 -0.023990134 -0.09385623 0.11564277 -0.03648442 0.114627704 0.014079556 0.09011096
0.046014547 0.036297873 -0.09126195 -0.07997068 -0.0671868 -0.04304828 -0.061932676 -0.091697626
0.09142171 0.060211286 -0.0203337 0.09740372 -0.12672053 0.08097552 -0.028706992 0.124677494
-0.0031332844 0.060377672 0.12906219 -0.025286566 -0.0045263767 -0.11297266 -0.11963379 0.052151322
-0.08883668 0.07072812 0.04530888 -0.100807175 0.066360116 0.03455643 0.09761834 -0.094866976
00000000: acf5 883d c412 593d e852 f3bd c026 cdbb
00000010: 5af2 093e 9408 5b3d 8c8a e0bc 9c9e 5d3d
00000020: 5d5c 98bc 94ee f9bd c472 bb3d acc8 f5bd
00000030: 39d7 8ebd 60fd 433c bac9 e2bd 961a cfbd
00000040: 1242 5abd aac2 963d 8a1b 3a3d e3b8 00be
00000050: a098 22bd fee7 d3bb 44d4 133e 9512 eebb
00000060: 2f03 163d 2430 f4bd 68b7 9cbc abf1 9ebd
00000070: cec6 f6bd 0017 743c 0aac 8e3d c05c ed3c
00000080: b302 ff3d 02b2 d53d 80b4 a83d aa21 703d
00000090: eccb c5bc c36d e3bd 2c44 1a3d 44bf a1bc
000000a0: 40ca 383b 3d91 043d abd3 03be ed2c 43bd
000000b0: eb6e d63d 008f 4a3d b97f 13bd c468 e63d
000000c0: f7c7 9abd 35aa 013e 2120 0a3e 91b2 edbc
000000d0: 269c f33d bb5c b53d 1630 c83d f680 f33c
000000e0: e6ea a83d e0ac 983b 4e7f b73d b81e 3d3d
000000f0: d671 7abd 5c19 df39 c04c 4cbb c0ab 6cbc
00000100: 9946 cebd da7e b13d 16f1 8c3d e6d8 de3d
00000110: c516 0d3e 167b afbd 38a6 f3bd 1494 05be
00000120: 2485 7cbc 0887 02be 4b57 a8bd 087d 0c3e
00000130: 0731 e6bd c771 bdbd e07c 633d 69a5 80bd
00000140: 7e51 d0bc f254 923d 0f5b 8fbd 344d e7bd
00000150: 7b09 fcbd 2c42 863d 5a23 f03d cbc8 c23d
00000160: e05d 0f3e b07e 41bd 7409 9d3d 9c6d 5c3d
00000170: be9e cd3d 8359 02be c876 303d d9e0 fcbd
00000180: ee40 2dbc fa53 9e3d c9e6 93bd 0f20 0ebe
00000190: fa68 f2bd a8b6 c93d e3be b5bd 78d3 6bbd
000001a0: 010a b63d 7a28 c1bd 20b5 df3c 05dc 073e
000001b0: aaf9 0abe 2a8f 64bd 1a0c 3dbd fbd9 91bd
000001c0: 9c95 a73d c071 a73b ab54 63bd 5785 0cbe
000001d0: 6593 103e 986f cd3d c718 f5bd e4af e5bc
000001e0: e1ed 93bd 9058 243c d21a 0b3e 74bf 6fbd
000001f0: c0d0 3dbc 8037 4cbb 2442 fabc 588a 9c3d
00000200: 860c bbbd 060a f73d da24 c63d b875 dbbc
00000210: 68db 0cbd a83c c0bd 80fd 8abb 61a0 fabd
00000220: a0a1 d63c 1eee 56bd 9c81 233d e4b2 29bd
00000230: 2488 b1bd 6026 b03d ef36 08be 05ea abbd
00000240: 0a8d ea3d fd7a ffbd 0eaa a73d 0689 823c
00000250: 3803 a8bd 1acc ed3d 46c6 943d 3089 3dbc
00000260: 68fb a33d d77c 60bd 37d1 8c3d 7a39 dc3d
00000270: 7e14 8c3d 0094 4cbc 69a4 0cbe de22 ff3d
00000280: 7846 fc3c f586 c4bc b237 c0bd 1ed6 ec3d
00000290: b070 15bd eec1 ea3d f0ad 663c 188c b83d
000002a0: c079 3c3d 14ad 143d 8ce7 babd abc7 a3bd
000002b0: 3c99 89bd 6553 30bd 1ead 7dbd f7cb bbbd
000002c0: 4e3b bb3d 1ca0 763d dc92 a6bc 9a7b c73d
000002d0: 07c3 01be 7ed6 a53d ed2a ebbc ea56 ff3d
000002e0: ca57 4dbb 944e 773d e128 043e c625 cfbc
000002f0: 0052 94bb 365e e7bd 8f02 f5bd a09c 553d
00000300: 01f0 b5bd e8d9 903d ce95 393d fe73 cebd
00000310: d0e7 873d 0b8b 0d3d 20ec c73d 9e49 c2bd

lstm.bias_hh_l0 f4 [200]
-0.030217282 0.0071172416 0.09644453 0.09684561 0.11438505 0.11488177 0.102764875 -0.03983154
-0.070671186 -0.02229862 0.12866594 -0.029886164 -0.08097543 -0.07596012 -0.04989321 0.100973636
-0.0059614857 0.06709635 0.048867173 0.0052281576 -0.101808324 -0.0019885565 0.030145971 -0.07333005
-0.11918272 0.0830838 0.03251213 0.05100578 -0.10198638 0.03892009 -0.12965639 -0.10205895
-0.09333059 -0.12639628 0.06536543 0.114568636 0.05054626 0.10719941 0.11960415 0.02908484
-0.069161564 0.075380065 0.08114722 0.13790222 0.0072615254 -0.062086895 0.056768358 -0.0873584
-0.028664837 -0.007502243 -0.0947091 -0.116829015 0.12796678 0.040617455 -0.0367842 0.03748441
0.10271929 -0.105029345 0.11672686 -0.13578323 -0.1168234 0.015008627 0.04507564 -0.074159056
-0.021253191 0.07728614 -0.10306982 0.09951572 -0.018130142 -0.07382242 0.079833105 0.09486473
-0.036541007 -0.013610092 -0.03632193 0.08719517 -0.016364291 0.13409452 0.13976087 -0.10533032
-0.13081415 -0.09781353 -0.05646712 0.009238556 -0.029919622 0.0053977263 -0.08614656 -0.122329466
-0.08175167 0.11494769 -0.08732802 -0.003263399 -0.06314183 -0.12293297 -0.025454149 -0.0406238
0.007432054 0.12755415 0.06875251 -0.06821342 0.11404173 -0.011005963 -0.09629397 -0.13787255
-0.09405199 -0.09672729 0.052535743 -0.11662941 0.11126022 -0.10638319 -0.0015154779 -0.003667434
0.017216116 -0.09156983 -0.08268939 -0.067318484 -0.066790774 -0.08257438 -0.11029927 -0.13158154
-0.035227094 -0.13627474 -0.11409385 0.015270287 -0.119731784 0.11188422 0.12820907 0.049666613
-0.04447615 0.12769304 -0.033795774 0.1116388 -0.10207532 0.12961604 0.08328733 0.13950096
0.012691259 -0.013410113 -0.102150865 0.12487851 0.090857774 -0.02047462 0.0367852 0.0044177575
0.023841247 0.08748445 -0.09570992 0.08185803 0.086491525 0.13770476 -0.124667436 -0.02361267
-0.028899387 0.04073232 -0.05615352 -0.026312632 -0.08778626 0.09144369 -0.10190163 -0.015354052
-0.13405912 -0.0997389 -0.1158312 -0.11529517 -0.028721122 -0.047364056 0.016596064 0.09731999
-0.108960286 -0.101384 0.038341105 -0.118204124 0.12292944 -0.04971525 -0.089174114 -0.004474173
-0.07564898 -0.11236642 -0.036999978 0.03661312 -0.010720822 0.057156876 -0.06353803 0.0034457892
-0.00768618 -0.039314143 0.12303893 -0.13624722 -0.014099523 0.0008517921 -0.12602067 0.044669807
-0.061975136 0.13463362 -0.11993511 -0.030230016 0.12093364 -0.057495426 -0.05526194 -0.0837432
00000000: 3c8a f7bc c037 e93b b684 c53d fe56 c63d
00000010: b642 ea3d 2247 eb3d 6476 d23d 6626 23bd
00000020: 0ebc 90bd 98ab b6bc 01c1 033e d4d3 f4bc
00000030: 72d6 a5bd fb90 9bbd d35c 4cbd 44cb ce3d
00000040: 9158 c3bb d069 893d f228 483d f750 ab3b
00000050: e280 d0bd 7152 02bb aff4 f63c 112e 96bd
00000060: 1216 f4bd d727 aa3d 702b 053d 70eb 503d
00000070: 3cde d0bd ac6a 1f3d a5c4 04be 4804 d1bd
00000080: 1c24 bfbd 076e 01be 50de 853d f6a2 ea3d
00000090: 9809 4f3d 5d8b db3d 05f3 f43d 5543 ee3c
000000a0: 94a4 8dbd dd60 9a3d 8430 a63d 3d36 0d3e
000000b0: 17f2 ed3b d44e 7ebd f085 683d f6e8 b2bd
000000c0: 85d2 eabc 60d5 f5bb d8f6 c1bd 0d44 efbd
000000d0: b909 033e 7d5e 263d 08ab 16bd 4189 193d
000000e0: 7e5e d23d a019 d7bd 7e0e ef3d c20a 0bbe
000000f0: 1b41 efbd bfe6 753c 3ca1 383d b4e0 97bd
00000100: 2c1b aebc 3248 9e3d 4516 d3bd e6ce cb3d
00000110: aa85 94bc 3530 97bd 8a7f a33d 7148 c23d
00000120: 06ac 15bd ddfc 5ebc 4ec6 14bd 6293 b23d
00000130: 680e 86bc 1350 093e 791d 0f3e 6cb7 d7bd
00000140: 25f4 05be 7652 c8bd 114a 67bd 505d 173c
00000150: ff19 f5bc 69df b03b 9c6d b0bd df87 fabd
00000160: 6b6d a7bd b269 eb3d 08d9 b2bd c0de 55bb
00000170: 8150 81bd 48c4 fbbd 3885 d0bc 2465 26bd
00000180: 9688 f33b 8e9d 023e 1ece 8c3d 7ab3 8bbd
00000190: b68e e93d 5b52 34bc c635 c5bd 762e 0dbe
000001a0: 549e c0bd f518 c6bd b82f 573d 66db eebd
000001b0: 66dc e33d 6edf d9bd 00a3 c6ba 5559 70bb
000001c0: d008 8d3c f788 bbbd 0e59 a9bd 46de 89bd
000001d0: 9ac9 88bd c21c a9bd 95e4 e1bd 50bd 06be
000001e0: 494a 10bd 9b8b 0bbe 09aa e9bd 3a30 7a3c
000001f0: f035 f5bd 8e23 e53d 3d49 033e 386f 4b3d
00000200: a02c 36bd f7c1 023e 706d 0abd e2a2 e43d
00000210: de0c d1bd 11ba 043e 8c92 aa3d 57d9 0e3e
00000220: 00ef 4f3c 17b6 5bbc 7934 d1bd 4ec0 ff3d
00000230: a413 ba3d 64ba a7bc 14ac 163d d6c2 903b
00000240: b84e c33c 0c2b b33d 9003 c4bd 2fa5 a73d
00000250: 7822 b13d 7a02 0d3e a451 ffbd 5c6f c1bc
00000260: 68be ecbc efd6 263d 3c01 66bd 978d d7bc
00000270: 48c9 b3bd d446 bb3d cdb1 d0bd 908f 7bbc
00000280: cb46 09be e943 ccbd e838 edbd e01f ecbd
00000290: 8f48 ebbc d000 42bd 78f4 873c b44f c73d
000002a0: 9226 dfbd 6aa2 cfbd 900b 1d3d 0115 f2bd
000002b0: 6ec2 fb3d 38a2 4bbd eba0 b6bd 159c 92bb
000002c0: daed 9abd 5e20 e6bd 4a8d 17bd a4f7 153d
000002d0: 63a6 2fbc 541d 6a3d 3a20 82bd c0d2 613b
000002e0: 5adc fbbb de07 21bd d6fb fb3d 6484 0bbe
000002f0: b001 67bc cd4a 5f3a 900b 01be b0f7 363d
00000300: a4d9 7dbd 65dd 093e 8aa0 f5bd f0a4 f7bc
00000310: 0eac f73d 5380 6bbd 585a 62bd 8e81 abbd

linear.weight f4 [10, 50]
0.073027864 0.27049214 0.044346854 0.64172596 0.6214413 0.31018642 0.13213266 0.12548433
-0.21519636 -0.12575907 -0.22904445 0.13345505 -0.009086102 0.060187504 0.32098725 -0.0842216
-0.1623004 -0.07109257 -0.32605305 0.18764715 0.38199815 0.38800645 -0.6307439 0.0058067837
0.79433316 -0.12454677 -0.050203443 -0.023422778 -0.07072461 -0.034345888 -0.82626873 0.12110819
0.074922964 -0.08100316 -0.10007255 0.27419633 0.113350704 0.38143662 0.16314702 -0.013823622
0.05502136 0.011175284 -0.091246426 0.24256805 -0.8371812 -0.02741427 0.23752613 -0.6873709
0.14774826 -0.009247719 -0.078865945 -0.17381896 -0.032402076 -0.24320938 0.044385336 -0.0075716097
-0.042334728 0.1163259 -0.062435288 -0.10374348 0.3588059 0.284066 -0.04498416 -0.087429136
0.33219355 -0.037460662 0.023608457 -0.01472728 -0.22507346 -0.13629147 0.3959046 0.14268558
0.25098476 -0.39893377 0.63171744 -0.30720034 -0.073946595 -0.10665697 -0.014354423 0.03252949
0.28023642 -0.0095962435 0.123645544 0.011860043 -0.06866295 -0.09113588 -0.08098081 0.020061912
-0.48658141 0.021396434 0.10914318 -0.038915154 0.10673399 0.22762653 -0.5049886 -0.0443836
0.46757153 0.2547429 0.16491589 -0.13262142 -0.11113013 -0.04044574 -0.023698092 0.42036214
0.16740829 -0.35336265 0.023655623 -0.10160272 -0.027186163 -0.009076551 -0.119656764 -0.020852812
0.09554738 0.07400267 -0.17775466 0.0039251 0.049001016 0.07623473 0.04974184 0.014491277
0.09912103 0.075018264 -0.15640779 -0.16245401 -0.17710511 0.050147306 -0.008580759 0.06869507
0.00855504 0.02383089 0.07064466 -0.13513605 -0.098731466 -0.063384145 0.25168532 0.054992612
-0.11733152 -0.28737313 0.12753345 -0.13306263 0.13979472 0.11339513 -0.12008545 0.3392086
0.20016962 0.06007725 -0.26749036 0.031955067 0.14025073 0.026675953 -0.11292522 0.13197516
-0.076320514 -0.2047111 0.6936156 0.21599363 -0.030573308 -0.042787485 0.06582262 -0.08515068
-0.33943698 0.07177783 -0.107566364 0.07704756 0.39859286 0.09905636 0.09913624 0.026178107
-0.2821113 0.057068087 0.42039168 0.45723087 -0.5863227 -0.005914524 0.7032058 0.00843007
0.110608146 0.020669386 0.09034844 -0.018895559 -0.64668065 -0.08836367 0.19254838 -0.06249722
-0.15505987 -0.65308523 -0.026515275 -0.32546657 -0.6745058 -0.44369403 0.011028737 0.03971468
-0.07150989 0.3563954 -0.59198546 0.06288494 -0.62790793 0.057625953 0.19506383 -0.019008681
0.040739615 -0.16984907 -0.12565713 0.20468606 -0.004275908 -0.4288364 0.020209447 -0.054561287
-0.095170274 -0.11642936 0.022564149 -0.41182587 0.13461103 0.03170815 -0.32754263 -0.12127763
-0.002846719 -0.09610741 0.1701364 -0.022752186 -0.21945754 0.0646163 0.03020643 -0.2505299
-0.09927923 0.10289965 -0.040443376 -0.055179633 0.060796186 0.029950485 -0.08976431 0.08132793
-0.21802579 -0.1368999 0.13685372 0.13871323 -0.06649372 -0.022373026 0.16286577 0.017291183
0.12981553 0.075723626 -0.12375462 -0.10422367 0.12080479 -0.0071891844 -0.16022155 -0.07309064
0.12384128 0.06588968 -0.044269703 0.038632825 0.03357649 -0.057990316 0.107835636 -0.021419331
00000000: a28f 953d f27d 8a3e 0ca5 353d 2748 243f
00000010: c716 1f3f c1d0 9e3e c94d 073e f77e 003e
00000020: 6f5c 5cbe fcc6 00be a18a 6abe 71a8 083e
00000030: e0dd 14bc 2c87 763d 7158 a43e 607c acbd
00000040: 1332 26be fb98 91bd 6df0 a6be 9326 403e
00000050: 4395 c33e c8a8 c63e 6f78 21bf d546 be3b
00000060: 6b59 4b3f 6012 ffbd 20a2 4dbd 20e1 bfbc
00000070: 10d8 90bd 46ae 0cbd 5986 53bf 9207 f83d
00000080: 3671 993d fce4 a5bd d6f2 ccbd 7663 8c3e
00000090: 6a24 e83d a94b c33e 0310 273e 797c 62bc
000000a0: 145e 613d 8a18 373c 68df babd c263 783e
000000b0: 8251 56bf e493 e0bc 0d3a 733e 8af7 2fbf
000000c0: 524b 173e bf83 17bc 7884 a1bd 99fd 31be
000000d0: 0ab8 04bd e10b 79be 66cd 353d 441b f8bb
000000e0: 2e67 2dbd 463c ee3d 25bc 7fbd 7677 d4bd
000000f0: 68b5 b73e 1971 913e 5041 38bd 0c0e b3bd
00000100: 4615 aa3e 5a70 19bd 8666 c13c b04a 71bc
00000110: a879 66be fe8f 0bbe 02b4 ca3e 2b1c 123e
00000120: 1381 803e 0c41 ccbe 3cb8 213f 5d49 9dbe
00000130: 5071 97bd f86e dabd d02e 6bbc a43d 053d
00000140: 267b 8f3e 9039 1dbc e039 fd3d a050 423c
00000150: 299f 8cbd 73a5 babd 44d9 a5bd e158 a43c
00000160: 3321 f9be 9347 af3c 7686 df3d 7f65 1fbd
00000170: 5a97 da3d ee16 693e ef46 01bf 94cb 35bd
00000180: 8965 ef3e a96d 823e b6df 283e e9cd 07be
00000190: 3298 e3bd 6faa 25bd 8022 c2bc b539 d73e
000001a0: 146d 2b3e f3eb b4be 70c9 c13c 1615 d0bd
000001b0: 84b5 debc d0b5 14bc 9b0e f5bd 84d3 aabc
000001c0: 58ae c33d b68e 973d 5105 36be 209e 803b
000001d0: 4ab5 483d f420 9c3d 1abe 4b3d d26c 6d3c
000001e0: f7ff ca3d 2da3 993d 5d29 20be 585a 26be
000001f0: 0b5b 35be 4367 4d3d 5096 0cbc 00b0 8c3d
00000200: 702a 0c3c 0039 c33c 26ae 903d 1b61 0abe
00000210: b933 cabd 8ccf 81bd e6dc 803e ef3f 613d
00000220: 824b f0bd 9222 93be 2198 023e 9241 08be
00000230: 5926 0f3e b53b e83d 5cef f5bd c0ac ad3e
00000240: 44f9 4c3e 9013 763d 7ff4 88be 51e3 023d
00000250: e39d 0f3e 8787 da3c 5645 e7bd 7f24 073e
00000260: ee4d 9cbd c99f 51be cb90 313f 6f2d 5d3e
00000270: e074 fabc ee41 2fbd 03ce 863d 7b63 aebd
00000280: afca adbe 4100 933d c14b dcbd 1ccb 9d3d
00000290: 5d14 cc3e 10de ca3d f107 cb3d 7873 d63c
000002a0: e470 90be 3ac0 693d 943d d73e 2a1a ea3e
000002b0: 3f19 16bf a0ce c1bb 4c05 343f 471e 0a3c
000002c0: 8686 e23d d852 a93c 9a08 b93d dcca 9abc
000002d0: dd8c 25bf 03f8 b4bd 672b 453e 16fd 7fbd
000002e0: 04c8 1ebe 9830 27bf 9036 d9bc 8ea3 a6be
000002f0: 69ac 2cbf dd2b e3be e0b1 343c dcab 223d
00000300: c773 92bd 7579 b63e 5c8c 17bf d2c9 803d
00000310: 93be 20bf 3109 6c3d d0be 473e 18b8 9bbc
00000320: 95de 263d eaec 2dbe 43ac 00be 3999 513e
00000330: eb1c 8cbb 7290 dbbe 488e a53c a87b 5fbd
00000340: a2e8 c2bd 8472 eebd 73d8 b83c d7da d2be
00000350: 79d7 093e 68e0 013d abb3 a7be 6860 f8bd
00000360: 0590 3abb f6d3 c4bd 3d38 2e3e cb62 babc
00000370: 7ab9 60be 8d55 843d 7a73 f73c 7445 80be
00000380: e952 cbbd 0dbd d23d f4a7 25bd 0a04 62bd
00000390: 6c05 793d b85a f53c 5ad6 b7bd 428f a63d
000003a0: 2742 5fbe 7d2f 0cbe 6223 0c3e d70a 0e3e
000003b0: dc2d 88bd a347 b7bc 49c6 263e 3da6 8d3c
000003c0: 5dee 043e fd14 9b3d 1073 fdbd 3873 d5bd
000003d0: 8068 f73d 4093 ebbb 1e11 24be 8cb0 95bd
000003e0: 7fa0 fd3d 2bf1 863d 2654 35bd 743d 1e3d
000003f0: 8087 093d 4187 6dbd eed8 dc3d 9877 afbc

linear.bias f4 [10]
-0.052396853 -0.069434546 0.05405692 0.08572728 -0.07525886 0.018916959 -0.06094671 -0.004215286
0.03562007 0.13968343
00000000: 159e 56bd b333 8ebd ca6a 5d3d c991 af3d
00000010: 5121 9abd bdf7 9a3c 42a3 79bd 6220 8abb
00000020: 5ae6 113d 2c09 0f3e

exp_avg f4 [200, 34]
6.118516e-13 2.0251675e-13 6.182079e-13 1.9606461e-13 6.1226095e-13 1.9607573e-13 6.370236e-13 2.015152e-13
6.2015947e-13 2.0094772e-13 6.502448e-13 2.4725678e-13 6.2598245e-13 2.506547e-13 6.889025e-13 3.0539525e-13
6.2647365e-13 3.1760827e-13 6.5978993e-13 3.549751e-13 6.010892e-13 3.1318803e-13 6.482826e-13 3.844135e-13
6.4199736e-13 3.8531363e-13 6.106625e-13 4.7331686e-13 6.746708e-13 4.726478e-13 6.1983513e-13 5.780795e-13
7.220798e-13 5.623872e-13 0.0 0.0 0.0 0.0 0.0 0.0
0.0 0.0 0.0 0.0 0.0 0.0 0.0 0.0
0.0 0.0 0.0 0.0 0.0 0.0 0.0 0.0
0.0 0.0 0.0 0.0 0.0 0.0 0.0 0.0
0.0 0.0 0.0 0.0 5.010096e-28 3.0197592e-27 5.500646e-28 2.8893082e-27
5.9767037e-28 2.8882674e-27 8.749362e-28 3.0197228e-27 1.0105578e-27 3.0199627e-27 9.61147e-28 3.6862322e-27
1.1224823e-27 3.729837e-27 1.2743559e-27 4.715464e-27 1.33388165e-27 4.7216657e-27 1.0103197e-27 5.407619e-27
5.573287e-28 4.950147e-27 1.4315233e-27 5.7799927e-27 1.5010214e-27 5.7830376e-27 1.0422375e-27 7.370352e-27
1.23983435e-27 7.3360806e-27 1.4504464e-27 8.530223e-27 2.3171029e-27 7.916795e-27 0.0 0.0
0.0 0.0 0.0 0.0 0.0 0.0 0.0 0.0
0.0 0.0 0.0 0.0 0.0 0.0 0.0 0.0
0.0 0.0 0.0 0.0 0.0 0.0 0.0 0.0
0.0 0.0 0.0 0.0 0.0 0.0 0.0 0.0
-0.027547644 -0.025096001 -0.027906956 -0.024623746 -0.02727068 -0.024556687 -0.029971454 -0.025296124
-0.028621592 -0.025148345 -0.031129142 -0.028792799 -0.029264227 -0.027948655 -0.03199853 -0.031863343
-0.024683064 -0.026154786 -0.028272219 -0.03506354 -0.020647373 -0.02510142 -0.030079512 -0.035392825
-0.028762937 -0.035214633 -0.030720066 -0.041299183 -0.027913487 -0.041603785 -0.035237484 -0.0444325
-0.02625524 -0.04630623 0.0 0.0 0.0 0.0 0.0 0.0
0.0 0.0 0.0 0.0 0.0 0.0 0.0 0.0
0.0 0.0 0.0 0.0 0.0 0.0 0.0 0.0
0.0 0.0 0.0 0.0 0.0 0.0 0.0 0.0
0.0 0.0 0.0 0.0 5.179265e-28 1.3833601e-27 5.6198015e-28 1.3199634e-27
5.644896e-28 1.3337563e-27 7.3025534e-28 1.4204468e-27 7.3649145e-28 1.4178767e-27 7.5738505e-28 1.6540809e-27
7.831432e-28 1.67146e-27 8.754307e-28 2.0541418e-27 8.350686e-28 2.0763096e-27 4.7973143e-28 1.6195343e-27
4.5202645e-28 1.6591719e-27 9.677886e-28 2.8457891e-27 9.822598e-28 2.8646382e-27 5.861485e-28 3.5884293e-27
6.275961e-28 3.5932117e-27 1.4138827e-27 3.924865e-27 1.1447266e-27 4.3553442e-27 -3.027513e-20 -1.0381547e-19
-3.057522e-20 -1.0034795e-19 -3.1593223e-20 -1.00452206e-19 -3.7242198e-20 -1.02938595e-19 -4.0650192e-20 -1.0294887e-19
-3.8530024e-20 -1.2522041e-19 -4.7418045e-20 -1.2536245e-19 -4.3027712e-20 -1.6042991e-19 -5.962628e-20 -1.5858822e-19
00000000: 8e38 2c2b 7b03 642a 9302 2e2b c7bf 5c2a
00000010: 0d56 2c2b fbc2 5c2a 634e 332b cde2 622a
00000020: 338f 2e2b 3d3f 622a 1307 372b 7531 8b2a
00000030: ca32 302b 261b 8d2a a8e8 412b 18ec ab2a
00000040: 2f56 302b 2dcc b22a e0b6 392b 4ed5 c72a
00000050: 0b31 292b 274f b02a af79 362b d367 d82a
00000060: c9b4 342b 8ce9 d82a dfe2 2b2b 133a 052b
00000070: 28e7 3d2b dd09 052b d477 2e2b 05b7 222b
00000080: 553f 4b2b 454c 1e2b 0000 0000 0000 0000
00000090: 0000 0000 0000 0000 0000 0000 0000 0000
000000a0: 0000 0000 0000 0000 0000 0000 0000 0000
000000b0: 0000 0000 0000 0000 0000 0000 0000 0000
000000c0: 0000 0000 0000 0000 0000 0000 0000 0000
000000d0: 0000 0000 0000 0000 0000 0000 0000 0000
000000e0: 0000 0000 0000 0000 0000 0000 0000 0000
000000f0: 0000 0000 0000 0000 0000 0000 0000 0000
00000100: 0000 0000 0000 0000 0000 0000 0000 0000
00000110: bac6 1e12 fe3f 6f13 8b52 2e12 22ea 6413
00000120: c868 3d12 06d5 6413 a1a3 8a12 413f 6f13
00000130: 1821 a012 1f44 6f13 c14c 9812 d606 9213
00000140: 4bdd b112 0ac1 9313 04ee c912 7ccc ba13
00000150: ab5c d312 610b bb13 7017 a012 c637 d613
00000160: e09f 3012 7418 c413 7cd5 e212 17f8 e413
00000170: a9d8 ed12 f816 e513 2d26 a512 20fc 1114
00000180: a875 c412 594e 1114 19d5 e512 5ff5 2814
00000190: 6e94 3713 ebce 1c14 0000 0000 0000 0000
000001a0: 0000 0000 0000 0000 0000 0000 0000 0000
000001b0: 0000 0000 0000 0000 0000 0000 0000 0000
000001c0: 0000 0000 0000 0000 0000 0000 0000 0000
000001d0: 0000 0000 0000 0000 0000 0000 0000 0000
000001e0: 0000 0000 0000 0000 0000 0000 0000 0000
000001f0: 0000 0000 0000 0000 0000 0000 0000 0000
00000200: 0000 0000 0000 0000 0000 0000 0000 0000
00000210: 0000 0000 0000 0000 0000 0000 0000 0000
00000220: 99ab e1bc 2196 cdbc 219d e4bc bdb7 c9bc
00000230: c366 dfbc 1b2b c9bc b286 f5bc d139 cfbc
00000240: d477 eabc e703 cebc 8b02 ffbc e0de ebbc
00000250: 88bb efbc 94f4 e4bc e410 03bd 2383 02bd
00000260: 2334 cabc 9042 d6bc 249b e7bc c99e 0fbd
00000270: ae24 a9bc 7ea1 cdbc 4f69 f6bc 11f8 10bd
00000280: 40a0 ebbc 383d 10bd a6a8 fbbc 5529 29bd
00000290: d3aa e4bc bb68 2abd 2e55 10bd dafe 35bd
000002a0: 3b15 d7bc 9aab 3dbd 0000 0000 0000 0000
000002b0: 0000 0000 0000 0000 0000 0000 0000 0000
000002c0: 0000 0000 0000 0000 0000 0000 0000 0000
000002d0: 0000 0000 0000 0000 0000 0000 0000 0000
000002e0: 0000 0000 0000 0000 0000 0000 0000 0000
000002f0: 0000 0000 0000 0000 0000 0000 0000 0000
00000300: 0000 0000 0000 0000 0000 0000 0000 0000
00000310: 0000 0000 0000 0000 0000 0000 0000 0000
00000320: 0000 0000 0000 0000 0000 0000 0000 0000
00000330: 3123 2412 c133 db12 3f19 3212 1428 d112
00000340: d6e4 3212 9557 d312 5a6d 6712 2b14 e112
00000350: 4967 6912 e9ab e012 6006 7012 bf0c 0313
00000360: 2030 7812 3d6d 0413 b0b7 8a12 f2be 2213
00000370: 6852 8412 9080 2413 7008 1812 0f50 0013
00000380: be40 0f12 0174 0313 2b5a 9912 7677 6113
00000390: 31a5 9b12 c4f5 6213 04c2 3912 ff26 8e13
000003a0: a5e4 4612 7f57 8e13 e509 e012 dc7a 9b13
000003b0: a163 b512 7088 ac13 63f8 0e9f 9a20 f59f
000003c0: 2c63 109f 9df0 ec9f dd31 159f a22f ed9f
000003d0: 0edf 2f9f 900e f39f 11f7 3f9f c614 f39f
000003e0: f1f3 359f 8cd5 13a0 e6ec 5f9f 7a00 14a0
000003f0: 5031 4b9f f766 3da0 e0c9 8c9f 593a 3ba0

exp_avg_sq f4 [200, 34]
5.896391e-23 6.729458e-24 6.024627e-23 6.297836e-24 5.9115457e-23 6.291733e-24 6.407272e-23 6.649912e-24
6.1263216e-23 6.5869314e-24 6.655598e-23 9.853722e-24 6.3019864e-23 1.0033746e-23 7.3692085e-23 1.5337341e-23
6.629372e-23 1.5800412e-23 6.664904e-23 1.9767105e-23 6.0035666e-23 1.7665e-23 6.823318e-23 2.355023e-23
6.723809e-23 2.3645246e-23 6.33388e-23 3.7031845e-23 6.993215e-23 3.7130632e-23 6.781468e-23 5.283689e-23
8.053396e-23 4.9097507e-23 0.0 0.0 0.0 0.0 0.0 0.0
0.0 0.0 0.0 0.0 0.0 0.0 0.0 0.0
0.0 0.0 0.0 0.0 0.0 0.0 0.0 0.0
0.0 0.0 0.0 0.0 0.0 0.0 0.0 0.0
0.0 0.0 0.0 0.0 0.0 0.0 0.0 0.0
0.0 0.0 0.0 0.0 0.0 0.0 0.0 0.0
0.0 0.0 0.0 0.0 0.0 0.0 0.0 0.0
0.0 0.0 0.0 0.0 0.0 0.0 0.0 0.0
0.0 0.0 0.0 0.0 0.0 0.0 0.0 0.0
0.0 0.0 0.0 0.0 0.0 0.0 0.0 0.0
0.0 0.0 0.0 0.0 0.0 0.0 0.0 0.0
0.0 0.0 0.0 0.0 0.0 0.0 0.0 0.0
0.0 0.0 0.0 0.0 0.0 0.0 0.0 0.0
0.29248846 0.15037115 0.3006016 0.14389278 0.28449816 0.1438224 0.30532655 0.15027644
0.2722379 0.1488891 0.32033437 0.19909523 0.2613495 0.19704904 0.33566776 0.26989743
0.24765368 0.26183248 0.34754676 0.33289766 0.2486035 0.30766 0.31460094 0.35425478
0.27661327 0.3542913 0.31564415 0.53033495 0.28779465 0.5314688 0.3196288 0.72281414
0.286231 0.72308433 0.0 0.0 0.0 0.0 0.0 0.0
0.0 0.0 0.0 0.0 0.0 0.0 0.0 0.0
0.0 0.0 0.0 0.0 0.0 0.0 0.0 0.0
0.0 0.0 0.0 0.0 0.0 0.0 0.0 0.0
0.0 0.0 0.0 0.0 0.0 0.0 0.0 0.0
0.0 0.0 0.0 0.0 0.0 0.0 0.0 0.0
0.0 0.0 0.0 0.0 0.0 0.0 0.0 0.0
0.0 0.0 0.0 0.0 0.0 0.0 0.0 0.0
0.0 0.0 0.0 0.0 0.0 0.0 4.4931647e-37 3.159796e-36
4.3255326e-37 2.957148e-36 4.4745464e-37 2.9565855e-36 4.788059e-37 3.092447e-36 5.4894856e-37 3.0924746e-36
4.7746265e-37 4.597071e-36 7.076351e-37 4.5966643e-36 5.340976e-37 7.5622305e-36 1.0672813e-36 7.39917e-36
00000000: e490 8e1a a92a 0219 a3aa 911a bfa2 f318
00000010: b2ee 8e1a 4e66 f318 18eb 9a1a c5a0 0019
00000020: 1820 941a cfd1 fe18 28ec a01a 4599 3e19
00000030: 685f 981a b414 4219 312d b21a 6b55 9419
00000040: d349 a01a edcf 9819 c225 a11a fb2c bf19
00000050: 4728 911a 6cd8 aa19 4bfa a41a 8cc3 e319
00000060: 5d92 a21a cbae e419 d124 991a 3413 331a
00000070: e715 a91a 7f8d 331a 41f7 a31a e780 7f1a
00000080: 1bb8 c21a c56b 6d1a 0000 0000 0000 0000
00000090: 0000 0000 0000 0000 0000 0000 0000 0000
000000a0: 0000 0000 0000 0000 0000 0000 0000 0000
000000b0: 0000 0000 0000 0000 0000 0000 0000 0000
000000c0: 0000 0000 0000 0000 0000 0000 0000 0000
000000d0: 0000 0000 0000 0000 0000 0000 0000 0000
000000e0: 0000 0000 0000 0000 0000 0000 0000 0000
000000f0: 0000 0000 0000 0000 0000 0000 0000 0000
00000100: 0000 0000 0000 0000 0000 0000 0000 0000
00000110: 0000 0000 0000 0000 0000 0000 0000 0000
00000120: 0000 0000 0000 0000 0000 0000 0000 0000
00000130: 0000 0000 0000 0000 0000 0000 0000 0000
00000140: 0000 0000 0000 0000 0000 0000 0000 0000
00000150: 0000 0000 0000 0000 0000 0000 0000 0000
00000160: 0000 0000 0000 0000 0000 0000 0000 0000
00000170: 0000 0000 0000 0000 0000 0000 0000 0000
00000180: 0000 0000 0000 0000 0000 0000 0000 0000
00000190: 0000 0000 0000 0000 0000 0000 0000 0000
000001a0: 0000 0000 0000 0000 0000 0000 0000 0000
000001b0: 0000 0000 0000 0000 0000 0000 0000 0000
000001c0: 0000 0000 0000 0000 0000 0000 0000 0000
000001d0: 0000 0000 0000 0000 0000 0000 0000 0000
000001e0: 0000 0000 0000 0000 0000 0000 0000 0000
000001f0: 0000 0000 0000 0000 0000 0000 0000 0000
00000200: 0000 0000 0000 0000 0000 0000 0000 0000
00000210: 0000 0000 0000 0000 0000 0000 0000 0000
00000220: 0cc1 953e e5fa 193e 74e8 993e a158 133e
00000230: bea9 913e 2e46 133e c353 9c3e 11e2 193e
00000240: c462 8b3e 6276 183e de02 a43e 9fdf 4b3e
00000250: 9acf 853e 39c7 493e a5dc ab3e ff2f 8a3e
00000260: ed98 7d3e e80e 863e a6f1 b13e 9071 aa3e
00000270: ea91 7e3e 9d85 9d3e 6013 a13e e260 b53e
00000280: 41a0 8d3e ab65 b53e 1c9c a13e 08c4 073f
00000290: d259 933e 570e 083f 63a6 a33e 590a 393f
000002a0: df8c 923e 0e1c 393f 0000 0000 0000 0000
000002b0: 0000 0000 0000 0000 0000 0000 0000 0000
000002c0: 0000 0000 0000 0000 0000 0000 0000 0000
000002d0: 0000 0000 0000 0000 0000 0000 0000 0000
000002e0: 0000 0000 0000 0000 0000 0000 0000 0000
000002f0: 0000 0000 0000 0000 0000 0000 0000 0000
00000300: 0000 0000 0000 0000 0000 0000 0000 0000
00000310: 0000 0000 0000 0000 0000 0000 0000 0000
00000320: 0000 0000 0000 0000 0000 0000 0000 0000
00000330: 0000 0000 0000 0000 0000 0000 0000 0000
00000340: 0000 0000 0000 0000 0000 0000 0000 0000
00000350: 0000 0000 0000 0000 0000 0000 0000 0000
00000360: 0000 0000 0000 0000 0000 0000 0000 0000
00000370: 0000 0000 0000 0000 0000 0000 0000 0000
00000380: 0000 0000 0000 0000 0000 0000 0000 0000
00000390: 0000 0000 0000 0000 0000 0000 0000 0000
000003a0: 0000 0000 0000 0000 0000 0000 0000 0000
000003b0: 0000 0000 0000 0000 fce4 1803 2267 8604
000003c0: b430 1303 fb90 7b04 cc42 1803 bb84 7b04
000003d0: e0ed 2203 c489 8304 2acc 3a03 118a 8304
000003e0: dd78 2203 ac89 c304 b6cb 7003 3e85 c304
000003f0: 76be 3503 b3d4 2005 a896 b503 ea5c 1d05

exp_avg f4 [200, 50]
-1.4686392e-27 3.748202e-15 -6e-45 3.4664307e-15 -2.4743495e-15 1.35309865e-17 0.0 1.2373388e-38
-3.2966213e-15 0.0 -2.1704093e-17 2.1738943e-17 -1.0122802e-33 6e-45 -3.2903768e-15 -3.0773461e-33
3.2385633e-15 0.0 2.4324967e-15 2.0511466e-15 -2.4815088e-15 -2.962345e-18 3.24709e-15 7.7068643e-16
-3.2573518e-15 2.4524922e-15 0.0 2.5251129e-30 -6.687419e-36 6e-45 2.4800506e-15 0.0
3.2563555e-15 -1.4404195e-32 -3.260387e-15 3.294968e-15 7.721607e-29 3.315305e-15 3.2563493e-15 -2.0048742e-17
-2.4705826e-32 1.6811234e-30 7.41539e-40 2.6805938e-17 2.4800921e-15 1.15108e-40 3.5107608e-15 3.2564675e-15
4.8855595e-18 -3.2385085e-15 0.0 0.0 0.0 0.0 0.0 0.0
0.0 0.0 0.0 0.0 0.0 0.0 0.0 0.0
0.0 0.0 0.0 0.0 0.0 0.0 0.0 0.0
0.0 0.0 0.0 0.0 0.0 0.0 0.0 0.0
0.0 0.0 0.0 0.0 0.0 0.0 0.0 0.0
0.0 0.0 0.0 0.0 0.0 0.0 0.0 0.0
0.0 0.0 0.0 0.0 6e-45 5.303752e-29 0.0 4.6207447e-29
-3.0617276e-32 -4.4248578e-29 0.0 6e-45 -3.006915e-29 0.0 -9.758598e-30 -4.78522e-29
-6e-45 0.0 -5.080037e-29 2.35e-43 5.071207e-29 0.0 3.9238193e-29 3.3837024e-29
1.2462156e-38 -5.067909e-29 -1.1819209e-29 1.9444055e-29 2.2805352e-30 3.8695348e-29 0.0 -4e-45
-6e-45 0.0 6.8380017e-32 0.0 -1.09720765e-30 1.064e-42 6.402566e-31 5.2037995e-29
-7.02227e-40 -9.17853e-31 5.1949414e-29 4.2543194e-30 4.368e-42 0.0 0.0 -3.2586987e-29
-5.6188953e-32 0.0 4.1710795e-29 8.970893e-35 8.564995e-31 -5.080004e-29 0.0 0.0
0.0 0.0 0.0 0.0 0.0 0.0 0.0 0.0
0.0 0.0 0.0 0.0 0.0 0.0 0.0 0.0
0.0 0.0 0.0 0.0 0.0 0.0 0.0 0.0
0.0 0.0 0.0 0.0 0.0 0.0 0.0 0.0
0.0 0.0 0.0 0.0 0.0 0.0 0.0 0.0
0.0 0.0 0.0 0.0 0.0 0.0 0.0 0.0
9.140001e-18 0.00040763986 1.2627816e-31 0.00042810253 0.0003495637 -4.0066618e-05 3.723587e-33 -1.188561e-25
-0.0001296944 -6e-45 -2.3853163e-05 -0.00022717184 3.419366e-19 1.9759215e-32 0.00016385656 -2.2768356e-20
-0.00021828276 0.0 -5.4273883e-06 -0.00020104142 6.6589223e-06 0.00019368708 -0.00025529304 -6.450859e-05
0.00019817916 -0.00025545422 -4.5317143e-38 -3.133259e-17 9.413687e-23 -5.2790735e-34 -0.0001227758 2.262345e-38
-0.00021789694 -8.4354496e-20 0.00016796509 1.672678e-06 3.9162912e-16 0.0001738043 -8.314326e-06 -0.0001881963
-6.4057196e-20 -3.199972e-18 -1.13712635e-26 5.966209e-07 -8.820705e-05 7.698722e-24 -4.7333488e-05 -3.405264e-05
2.397407e-07 0.00021828288 0.0 0.0 0.0 0.0 0.0 0.0
00000000: 15b7 e892 100b 8727 0400 0080 5cc8 7927
00000010: b14b 32a7 479a 7923 0000 0000 f9bb 8600
00000020: ee8b 6da7 0000 0000 572f c8a3 a181 c823
00000030: a331 a888 0400 0000 bd18 6da7 eaa7 7f89
00000040: f35c 6927 0000 0000 a547 2f27 facc 1327
00000050: c2cf 32a7 1d95 5aa2 3dfa 6927 9f22 5e26
00000060: 89b7 6aa7 7fb8 3027 0000 0000 8bdc 4c0e
00000070: c639 0e85 0400 0000 dcb4 3227 0000 0000
00000080: 28a5 6a27 eb94 958a 86ef 6aa7 6e6d 6d27
00000090: 18c4 c310 95e4 6e27 0ba5 6a27 c1ea b8a3
000000a0: ad47 008b 9163 080e 1c13 0800 bb3d f723
000000b0: a0b5 3227 e040 0100 1bfa 7c27 39a7 6a27
000000c0: ce3e b422 f05b 69a7 0000 0000 0000 0000
000000d0: 0000 0000 0000 0000 0000 0000 0000 0000
000000e0: 0000 0000 0000 0000 0000 0000 0000 0000
000000f0: 0000 0000 0000 0000 0000 0000 0000 0000
00000100: 0000 0000 0000 0000 0000 0000 0000 0000
00000110: 0000 0000 0000 0000 0000 0000 0000 0000
00000120: 0000 0000 0000 0000 0000 0000 0000 0000
00000130: 0000 0000 0000 0000 0000 0000 0000 0000
00000140: 0000 0000 0000 0000 0000 0000 0000 0000
00000150: 0000 0000 0000 0000 0000 0000 0000 0000
00000160: 0000 0000 0000 0000 0000 0000 0000 0000
00000170: 0000 0000 0000 0000 0000 0000 0000 0000
00000180: 0000 0000 0000 0000 0000 0000 0000 0000
00000190: 0400 0000 5277 8610 0000 0000 b24c 6a10
000001a0: 57f9 1e8b f05d 6090 0000 0000 0400 0000
000001b0: fd77 1890 0000 0000 8aed 458f b5a3 7290
000001c0: 0400 0080 0000 0000 53cb 8090 a800 0000
000001d0: 0492 8010 0000 0000 16f6 4610 f892 2b10
000001e0: 6cb3 8700 9c7c 8090 d7b8 6f8f a72f c50f
000001f0: dd04 390e 6f35 4410 0000 0000 0300 0080
00000200: 0400 0080 0000 0000 5186 b10b 0000 0000
00000210: 3908 b28d f702 0000 70c6 4f0d 97ee 8310
00000220: 86a5 0780 1fee 948d 19b5 8310 6193 ac0e
00000230: 2d0c 0000 0000 0000 0000 0000 543c 2590
00000240: f7df 918b 0000 0000 b57f 5310 bc7c ee06
00000250: 99f9 8a0d 1ccb 8090 0000 0000 0000 0000
00000260: 0000 0000 0000 0000 0000 0000 0000 0000
00000270: 0000 0000 0000 0000 0000 0000 0000 0000
00000280: 0000 0000 0000 0000 0000 0000 0000 0000
00000290: 0000 0000 0000 0000 0000 0000 0000 0000
000002a0: 0000 0000 0000 0000 0000 0000 0000 0000
000002b0: 0000 0000 0000 0000 0000 0000 0000 0000
000002c0: 0000 0000 0000 0000 0000 0000 0000 0000
000002d0: 0000 0000 0000 0000 0000 0000 0000 0000
000002e0: 0000 0000 0000 0000 0000 0000 0000 0000
000002f0: 0000 0000 0000 0000 0000 0000 0000 0000
00000300: 0000 0000 0000 0000 0000 0000 0000 0000
00000310: 0000 0000 0000 0000 0000 0000 0000 0000
00000320: 6f9a 2823 7fb8 d539 1eeb 230c f372 e039
00000330: a545 b739 340d 28b8 f8ab 9a09 0023 1396
00000340: 93fe 07b9 0400 0080 4718 c8b7 fa34 6eb9
00000350: 00d8 c920 0131 cd0a e9d0 2b39 820a d79e
00000360: d5e2 64b9 0000 0000 e91c b6b6 a5ce 52b9
00000370: b56f df36 7b18 4b39 dad8 85b9 c948 87b8
00000380: 50ce 4f39 7cee 85b9 e1ba 7681 fe7e 10a4
00000390: e69b e31a 646d 2f88 61bd 00b9 f958 f600
000003a0: 447b 64b9 2a2d c79f c91f 3039 c780 e035
000003b0: 42c2 e125 3d3f 3639 c27d 0bb7 8f56 45b9
000003c0: 3340 979f c31d 6ca2 283b 6194 7a27 2035
000003d0: cdfb b8b8 3aea 1419 f287 46b8 bed3 0eb8
000003e0: b6b5 8034 dde2 6439 0000 0000 0000 0000
000003f0: 0000 0000 0000 0000 0000 0000 0000 0000

exp_avg_sq f4 [200, 50]
0.0 1.0965819e-27 0.0 5.982141e-28 8.874922e-28 6.6613486e-30 0.0 0.0
1.5761163e-27 0.0 8.598655e-29 8.576496e-30 0.0 0.0 1.6590386e-27 0.0
1.7268444e-27 0.0 8.93144e-28 8.611888e-28 8.879933e-28 2.0611366e-30 1.4871972e-27 9.54079e-29
1.5323251e-27 1.0246291e-27 0.0 0.0 0.0 0.0 8.891177e-28 0.0
1.5329687e-27 0.0 1.5174405e-27 1.6610127e-27 0.0 1.48331e-27 1.6636504e-27 1.1183829e-29
0.0 0.0 0.0 6.4990935e-30 8.891614e-28 0.0 8.124335e-28 1.5325984e-27
2.953137e-31 1.7269918e-27 0.0 0.0 0.0 0.0 0.0 0.0
0.0 0.0 0.0 0.0 0.0 0.0 0.0 0.0
0.0 0.0 0.0 0.0 0.0 0.0 0.0 0.0
0.0 0.0 0.0 0.0 0.0 0.0 0.0 0.0
0.0 0.0 0.0 0.0 0.0 0.0 0.0 0.0
0.0 0.0 0.0 0.0 0.0 0.0 0.0 0.0
0.0 0.0 0.0 0.0 0.0 0.0 0.0 0.0
0.0 0.0 0.0 0.0 0.0 0.0 0.0 0.0
0.0 0.0 0.0 0.0 0.0 0.0 0.0 0.0
0.0 0.0 0.0 0.0 0.0 0.0 0.0 0.0
0.0 0.0 0.0 0.0 0.0 0.0 0.0 0.0
0.0 0.0 0.0 0.0 0.0 0.0 0.0 0.0
0.0 0.0 0.0 0.0 0.0 0.0 0.0 0.0
0.0 0.0 0.0 0.0 0.0 0.0 0.0 0.0
0.0 0.0 0.0 0.0 0.0 0.0 0.0 0.0
0.0 0.0 0.0 0.0 0.0 0.0 0.0 0.0
0.0 0.0 0.0 0.0 0.0 0.0 0.0 0.0
0.0 0.0 0.0 0.0 0.0 0.0 0.0 0.0
0.0 0.0 0.0 0.0 0.0 0.0 0.0 0.0
1.1092843e-31 1.8231161e-05 0.0 1.7381686e-05 2.2623526e-06 1.2868519e-05 0.0 0.0
1.4580682e-05 0.0 1.4694821e-05 1.860225e-05 4.6014178e-35 0.0 1.6460905e-05 9.343925e-39
1.9487174e-05 0.0 6.572775e-07 9.749815e-06 3.1355913e-07 2.0605944e-06 1.886596e-06 6.3491243e-06
4.681828e-06 1.2331421e-05 0.0 7.637605e-30 2.2466e-41 0.0 1.8992555e-06 0.0
1.9487004e-05 3.113924e-37 1.1528483e-05 3.625142e-06 6.95133e-30 1.8090912e-05 3.252054e-06 2.5477468e-06
7.504289e-38 5.9715075e-31 0.0 6.4036684e-12 3.6110941e-06 7e-43 4.309353e-06 1.5039068e-05
1.3486789e-12 1.9487172e-05 0.0 0.0 0.0 0.0 0.0 0.0
00000000: 0000 0000 a6c2 ad12 0000 0000 e594 3d12
00000010: f6a0 8c12 b31b 070f 0000 0000 0000 0000
00000020: dfbe f912 0000 0000 7600 da10 b7f3 2d0f
00000030: 0000 0000 0000 0000 4d71 0313 0000 0000
00000040: 91d0 0813 0000 0000 3a86 8d12 f875 8812
00000050: 4ab5 8c12 2238 270e e3a7 eb12 44e3 f110
00000060: 7ece f212 e55b a212 0000 0000 0000 0000
00000070: 0000 0000 0000 0000 e6e2 8c12 0000 0000
00000080: 99e8 f212 0000 0000 b372 f012 5799 0313
00000090: 0000 0000 340a eb12 d7ce 0313 c3d5 620f
000000a0: 0000 0000 0000 0000 0000 0000 39d1 030f
000000b0: ace4 8c12 0000 0000 38bc 8012 94d9 f212
000000c0: 68ab bf0c 8ed3 0813 0000 0000 0000 0000
000000d0: 0000 0000 0000 0000 0000 0000 0000 0000
000000e0: 0000 0000 0000 0000 0000 0000 0000 0000
000000f0: 0000 0000 0000 0000 0000 0000 0000 0000
00000100: 0000 0000 0000 0000 0000 0000 0000 0000
00000110: 0000 0000 0000 0000 0000 0000 0000 0000
00000120: 0000 0000 0000 0000 0000 0000 0000 0000
00000130: 0000 0000 0000 0000 0000 0000 0000 0000
00000140: 0000 0000 0000 0000 0000 0000 0000 0000
00000150: 0000 0000 0000 0000 0000 0000 0000 0000
00000160: 0000 0000 0000 0000 0000 0000 0000 0000
00000170: 0000 0000 0000 0000 0000 0000 0000 0000
00000180: 0000 0000 0000 0000 0000 0000 0000 0000
00000190: 0000 0000 0000 0000 0000 0000 0000 0000
000001a0: 0000 0000 0000 0000 0000 0000 0000 0000
000001b0: 0000 0000 0000 0000 0000 0000 0000 0000
000001c0: 0000 0000 0000 0000 0000 0000 0000 0000
000001d0: 0000 0000 0000 0000 0000 0000 0000 0000
000001e0: 0000 0000 0000 0000 0000 0000 0000 0000
000001f0: 0000 0000 0000 0000 0000 0000 0000 0000
00000200: 0000 0000 0000 0000 0000 0000 0000 0000
00000210: 0000 0000 0000 0000 0000 0000 0000 0000
00000220: 0000 0000 0000 0000 0000 0000 0000 0000
00000230: 0000 0000 0000 0000 0000 0000 0000 0000
00000240: 0000 0000 0000 0000 0000 0000 0000 0000
00000250: 0000 0000 0000 0000 0000 0000 0000 0000
00000260: 0000 0000 0000 0000 0000 0000 0000 0000
00000270: 0000 0000 0000 0000 0000 0000 0000 0000
00000280: 0000 0000 0000 0000 0000 0000 0000 0000
00000290: 0000 0000 0000 0000 0000 0000 0000 0000
000002a0: 0000 0000 0000 0000 0000 0000 0000 0000
000002b0: 0000 0000 0000 0000 0000 0000 0000 0000
000002c0: 0000 0000 0000 0000 0000 0000 0000 0000
000002d0: 0000 0000 0000 0000 0000 0000 0000 0000
000002e0: 0000 0000 0000 0000 0000 0000 0000 0000
000002f0: 0000 0000 0000 0000 0000 0000 0000 0000
00000300: 0000 0000 0000 0000 0000 0000 0000 0000
00000310: 0000 0000 0000 0000 0000 0000 0000 0000
00000320: 4bfe 0f0c 1fef 9837 0000 0000 e3ce 9137
00000330: ecd2 1736 dee5 5737 0000 0000 0000 0000
00000340: 8d9f 7437 0000 0000 c789 7637 070c 9c37
00000350: 41a7 7406 0000 0000 8615 8a37 10bf 6500
00000360: 6378 a337 0000 0000 c46f 3035 2393 2337
00000370: 3d57 a834 be48 0a36 f236 fd35 900a d536
00000380: 9918 9d36 0de3 4e37 0000 0000 b6e8 1a0f
00000390: a03e 0000 0000 0000 ece9 fe35 0000 0000
000003a0: 0678 a337 35ec d302 756a 4137 7747 7336
000003b0: 5efd 0c0f f0c1 9737 dd3d 5a36 f5f9 2a36
000003c0: 4349 cc01 58c9 410d 0000 0000 1e4f e12c
000003d0: 2056 7236 f401 0000 0f99 9036 4e50 7c37
000003e0: 47cf bd2b 6278 a337 0000 0000 0000 0000
000003f0: 0000 0000 0000 0000 0000 0000 0000 0000
